app/src/main/assets/edufin_model.tflite (tflite, 5312 bytes, 6 tensors)

arith.constant f4 [3, 16]
0	0xbf069123	-0.5256521
1	0x3d3cbc07	0.046077754
2	0x3f2fd12a	0.68678534
3	0x3d2e9def	0.042631086
4	0x3f2268ca	0.63441145
5	0xbf48e400	-0.784729
6	0xbdc877e8	-0.09788495
7	0xbed1f31d	-0.41005793
8	0xbe2d34a2	-0.16914609
9	0xbebe222b	-0.37135443
10	0x3f1572a4	0.5837805
11	0x3ef40d90	0.47666597
12	0x3f36310c	0.7116859
13	0x3ecf2153	0.40455112
14	0x3f835c96	1.026263
15	0xbf31e09b	-0.69483346
16	0xbf1ba471	-0.6079779
17	0xbef5a567	-0.47977754
18	0xbf37ed6a	-0.7184664
19	0x3f0ce607	0.55038494
20	0xbe77350d	-0.24141331
21	0x3ec54ce8	0.38535237
22	0xbd3dabf6	-0.046306573
23	0x3f3ddb2c	0.74162555
24	0xbf611af2	-0.8793174
25	0x3f25a30c	0.64701915
26	0x3e9962f0	0.29958296
27	0x3ed29328	0.41127896
28	0xbf368834	-0.7130158
29	0x3e237754	0.15963489
30	0xbf352968	-0.70766306
31	0x3e98187e	0.29706186
32	0x3f0063c8	0.50152254
33	0xbecaf491	-0.39639714
34	0x3f0fb46c	0.56134677
35	0xbf576d3b	-0.8415105
36	0xbd97a480	-0.07404423
37	0x3dd59501	0.10428811
38	0x3ea6aa40	0.32551765
39	0x3f228099	0.63477474
40	0x3f42b7f5	0.76061946
41	0x3ed1ce24	0.40977585
42	0xbf727e55	-0.9472402
43	0xbe704e96	-0.23467478
44	0xbe76b204	-0.24091345
45	0xbfa279ca	-1.2693417
46	0x3e173722	0.14767125
47	0x3f06f98f	0.52724546

arith.constant1 f4 [16, 32]
0	0x3e0dcfb8	0.1384877
1	0xbe23a675	-0.15981467
2	0x3ecafe57	0.3964717
3	0x3e866c64	0.2625457
4	0xbe6a77ee	-0.22897312
5	0x3e7c1d51	0.24620558
6	0xbcce0ff8	-0.025154099
7	0xbecf6b76	-0.40511674
8	0xbea52b59	-0.32259634
9	0x3eacee8d	0.3377575
10	0x3d290e51	0.04127342
11	0x3d56eff5	0.052474935
12	0x3e8219cc	0.25410306
13	0x3e7907ff	0.24319457
14	0xbec45fd7	-0.3835437
15	0xbeb3e1bd	-0.35133162
16	0x3eb92af6	0.3616559
17	0xbedbb2bb	-0.42909798
18	0x3e907556	0.2821452
19	0xbc2d45e0	-0.0105757415
20	0xbe089ab2	-0.13340262
21	0x3c10e877	0.008844486
22	0x3e843d97	0.2582824
23	0x3e86bf19	0.2631767
24	0xbcb9e99f	-0.022694407
25	0xbe7f7c51	-0.24949767
26	0x3e12ffc6	0.14355382
27	0xbe80dd04	-0.25168622
28	0xbee23483	-0.44180688
29	0xbe8055b3	-0.25065383
30	0xbdac26a8	-0.084058106
31	0x3e273362	0.16328195
32	0x3e5d9266	0.21637878
33	0x3eee3a4a	0.46528846
34	0x3e806c93	0.25082836
35	0x3e91de18	0.28489757
36	0xbec367a4	-0.3816501
37	0x3eb502ea	0.35353786
38	0x3e8cc547	0.2749426
39	0x3f18556b	0.5950534
40	0x3e7c2005	0.2462159
41	0x3dc85432	0.09781684
42	0xbdc260ac	-0.09491095
43	0x3e255278	0.1614474
44	0x3da682e2	0.08130433
45	0xbec904ab	-0.39261374
46	0x3f26c80e	0.6514901
47	0x3ee79207	0.45228598
48	0xbe80dd8f	-0.25169036
49	0xbe04e8c1	-0.12979414
50	0xbda4bd65	-0.08043937
51	0xbe135a53	-0.14389925
52	0x3e73d2cb	0.2381088
53	0xbc946008	-0.018112198
54	0xbebde99a	-0.37092286
55	0xbcb63cc8	-0.02224578
56	0x3e88a56f	0.26688716
57	0x3ec3586b	0.38153395
58	0x3e004659	0.12526836
59	0x3ed3c12b	0.41358313
60	0x3ec74b2d	0.38924542
61	0x3e0dc855	0.13845952
62	0xbd6f1db7	-0.058377948
63	0x3f0b0172	0.5429908
64	0x3e80fe26	0.251939
65	0x3cdd2593	0.026995456
66	0x3ed556a2	0.41667658
67	0x3de533ac	0.11191496
68	0xbb5718af	-0.003282111
69	0x3e54d1fd	0.20783229
70	0x3f0543b8	0.52056456
71	0xbef3512b	-0.47522864
72	0xbf86ed8b	-1.0541242
73	0xbda694b2	-0.0813383
74	0xbdbe4477	-0.092904024
75	0xbf2d511d	-0.67701894
76	0x3e1b8208	0.15186322
77	0xbdb43590	-0.08799279
78	0xbe249eaf	-0.16076158
79	0xbf058f7e	-0.52172077
80	0x3ea57482	0.3231545
81	0xbee69339	-0.45034197
82	0x3f1cd46d	0.61261636
83	0x3e59e47e	0.21278569
84	0xbe080974	-0.13284856
85	0x3f2d0bda	0.6759621
86	0xbd4d4b92	-0.050120898
87	0xbe16bfdb	-0.14721625
88	0xbdef930c	-0.11697969
89	0xbd4ea9d7	-0.05045494
90	0x3db3c59b	0.087779246
91	0xbd8a12d1	-0.0674187
92	0xbeea8258	-0.4580257
93	0xbd5a61e9	-0.05331603
94	0x3cdfc79e	0.027316865
95	0x3eaf8f4f	0.34289023
96	0x3dde89c5	0.10866121
97	0x3ee2da31	0.44307092
98	0xbdb45683	-0.08805563
99	0xbeaff61c	-0.34367454
100	0x3bac5837	0.0052595395
101	0xbe13d9b3	-0.14438514
102	0xbe67999d	-0.22617193
103	0xbc8729ca	-0.016499419
104	0x3f46b8d3	0.7762577
105	0xbe12b0c9	-0.1432525
106	0x3ed638ca	0.41840202
107	0x3e8a4dc6	0.2701246
108	0x3d12da42	0.035852678
109	0x3edb6220	0.428483
110	0xbe76b1b9	-0.24091233
111	0xbc9b5d6a	-0.018965442
112	0x3e7940ba	0.24341097
113	0x3ec85946	0.3913061
114	0xbeec13dc	-0.46108902
115	0xbd0ed869	-0.034874354
116	0xbe906507	-0.28202078
117	0x3e4b72f2	0.19868067
118	0x3ea57cc9	0.32321766
119	0xbc0ad4ea	-0.008473614
120	0xbc505a9b	-0.0127169145
121	0x3e8ed4f2	0.2789684
122	0xbe0a0d09	-0.13481535
123	0x3ed2b412	0.41153008
124	0x3d11d3d3	0.035602402
125	0xbdaf10ac	-0.08548102
126	0x3d6bca8d	0.057566214
127	0x3d973e8c	0.07384977
128	0x3e9a3449	0.30118015
129	0x3d0cc7be	0.034370176
130	0xbe91a281	-0.28444293
131	0xbe2262c2	-0.15857986
132	0xbdf90e9e	-0.12160991
133	0xbc498d3d	-0.01230174
134	0xbf2e93dc	-0.68194366
135	0x3ddb1ba5	0.10698632
136	0x3efe3b79	0.4965475
137	0xbd079519	-0.033101175
138	0xbe695e93	-0.22789983
139	0x3ee29e74	0.44261515
140	0xbc4d8ebc	-0.012546238
141	0x3e18ac3b	0.1490945
142	0x3f234945	0.63783675
143	0x3e069ea3	0.13146453
144	0xbefe25d7	-0.49638245
145	0x3e0f28e4	0.13980442
146	0xbf0359fb	-0.51309174
147	0xbe8368b1	-0.2566581
148	0x3e949290	0.29018068
149	0x3d9203c2	0.07129623
150	0x3d06962a	0.03285805
151	0x3cd81763	0.02637834
152	0x3eaef808	0.34173608
153	0x3ebb4302	0.3657456
154	0xbe9115d8	-0.28336978
155	0xbd198c3d	-0.037487257
156	0x3e3bc8fa	0.18338385
157	0x3ca2c2e6	0.019868325
158	0x3e09c1b3	0.13452797
159	0x3d778652	0.060430832
160	0xbe126d59	-0.14299525
161	0xbe12f56c	-0.14351434
162	0x3b47f287	0.0030509548
163	0x3e347ff2	0.17626932
164	0x3d89a586	0.06721024
165	0x3e757e15	0.23973878
166	0x3f03fa85	0.5155414
167	0xbe7d4d2f	-0.24736474
168	0x3ea5fab1	0.32417825
169	0x3ed6d43c	0.41958797
170	0x3ea82e8a	0.32848006
171	0xbd8e33dc	-0.06943485
172	0x3ebec40b	0.37258944
173	0x3e5df0f5	0.21673949
174	0xbf4b903c	-0.7951696
175	0x3e544751	0.2073033
176	0x3dfce5b7	0.12348502
177	0xbe42880a	-0.18997207
178	0xbe9824a0	-0.29715443
179	0x3ee96328	0.45583463
180	0x3ced8707	0.02899505
181	0xbe1d624e	-0.15369532
182	0x3ebe3d84	0.37156308
183	0x3eac58ba	0.33661443
184	0x3e79171e	0.24325225
185	0xbe5f796e	-0.21823665
186	0xbdfd022a	-0.123539284
187	0xbeb595a7	-0.35465738
188	0xbe92fc89	-0.28708294
189	0xbeadbf81	-0.33935168
190	0x3d8501f5	0.06494514
191	0xbe4b7cec	-0.19871873
192	0x3d58a0dd	0.052887786
193	0xbe0faf4f	-0.14031719
194	0x3cdd595a	0.027020145
195	0x3da867d0	0.08222926
196	0x3e8c335b	0.2738293
197	0xbd8bafcf	-0.06820642
198	0xbe399360	-0.18122625
199	0xbd8d22e7	-0.06891423
200	0xbe86b46e	-0.26309532
201	0x3e49d8e7	0.19711648
202	0x3e04cbf5	0.12968428
203	0xbed09832	-0.40741116
204	0xbe3ca730	-0.18423152
205	0x3e9a73b1	0.3016639
206	0x3e7bcadc	0.24589103
207	0xba355fc8	-0.00069188746
208	0x3ca926d0	0.02064839
209	0xbdd51df7	-0.10406106
210	0xbeafa694	-0.34306777
211	0x3ea8b832	0.3295303
212	0x3da1a1b4	0.078921705
213	0x3e753c78	0.23948848
214	0x3e9ead47	0.30991575
215	0x3db2b2eb	0.08725532
216	0x3e8578c6	0.26068705
217	0xbdb3e42c	-0.08783755
218	0x3ea46209	0.32106045
219	0xbe813cd7	-0.2524173
220	0xbd9fc545	-0.07801298
221	0xbed78543	-0.42093858
222	0xbe622b27	-0.22086774
223	0x3ddb60b3	0.10711803
224	0x3d67b8af	0.056572612
225	0x3de301a1	0.11084295
226	0xbdd98edf	-0.106229536
227	0xbe8e8ff3	-0.278442
228	0x3ed9159d	0.42399302
229	0xbdbe82df	-0.093023054
230	0x3d75a321	0.059970025
231	0xbeae88fb	-0.34088883
232	0xbe8eacbe	-0.27866167
233	0x3e95a49c	0.2922715
234	0x3ea45da4	0.32102692
235	0xbe8971a6	-0.2684452
236	0x3eda181f	0.42596528
237	0x3e5a9bad	0.21348448
238	0xbf49205d	-0.7856501
239	0x3dfaa0c3	0.12237694
240	0x3d597035	0.053085525
241	0xbe2bc508	-0.1677438
242	0x3e822ef4	0.25426447
243	0x3e8437cb	0.25823817
244	0x3ee60123	0.44922742
245	0xbe990b42	-0.29891402
246	0x3e359d9b	0.17735903
247	0xbd94f603	-0.072734855
248	0xbe76ddf0	-0.241081
249	0xb93dc36b	-0.00018097243
250	0x3ed64344	0.41848195
251	0xbe80dc59	-0.25168112
252	0x3e37f618	0.17964971
253	0xbda332a8	-0.07968646
254	0x3f12389b	0.57117623
255	0xbe1f98e5	-0.15585668

arith.constant2 f4 [3]
0	0xbd869fe7	-0.06573468
1	0x3e3c911c	0.1841473
2	0xbe35d846	-0.17758283

sequential_1/dense_1_2/BiasAdd/ReadVariableOp f4 [16]
0	0x3bba2261	0.005680368
1	0xbe4d0cdf	-0.20024441
2	0xbdab1764	-0.08354071
3	0x3e6fab2e	0.23405144
4	0xbdfe1953	-0.12407174
5	0x3ec1852b	0.37796912
6	0xbc7bbee7	-0.015365339
7	0x3ec162a2	0.37770563
8	0x3dbcc025	0.09216336
9	0x3eb35a23	0.35029706
10	0x3e59bb32	0.21262816
11	0x3e634dea	0.2219769
12	0xbdf2c1a2	-0.11853339
13	0x3ea38ee0	0.31944942
14	0xbe08d459	-0.13362254
15	0x3e60a5cc	0.21938246

sequential_1/dense_1/BiasAdd/ReadVariableOp f4 [32]
0	0xbddb553c	-0.107096165
1	0x3e2f3b09	0.17112364
2	0x3e132553	0.14369707
3	0x3da7d3e1	0.081947096
4	0x3ee689fe	0.45027155
5	0x3df760e6	0.12079029
6	0x3ee7f580	0.4530449
7	0xbcb4e81c	-0.022083335
8	0x3f073b3f	0.5282478
9	0x3e783796	0.24239954
10	0x3ed268ab	0.4109548
11	0x3e917ecd	0.28417054
12	0x3ebf43d7	0.37356445
13	0x3e9458da	0.28974038
14	0xbdead6d3	-0.11466756
15	0x3e615a3f	0.22007082
16	0x3e4490c7	0.19195853
17	0x3e566ca9	0.20939888
18	0x3e493c0e	0.19651815
19	0x3ed717cb	0.4201034
20	0x3d3812c8	0.044939786
21	0xbe1ee875	-0.15518363
22	0x3ecf16ec	0.40447176
23	0x3ea343ad	0.3188757
24	0x3e024ba0	0.12724161
25	0x3e031a90	0.12803102
26	0x3ea747ce	0.3267197
27	0x3dd455e7	0.10367947
28	0x3e4971d3	0.19672327
29	0xbe1a89bf	-0.15091608
30	0x3ec9e2f2	0.39430958
31	0x3e1fe24d	0.1561367

sequential_1/dense_1/MatMul f4 [32, 6]
0	0x3e3b4e2f	0.18291543
1	0x3e885689	0.2662852
2	0x3e999e99	0.30003813
3	0xbe5c9cca	-0.21544185
4	0xbe48d9db	-0.19614355
5	0x3d338d38	0.04383585
6	0xbdfc07c5	-0.123061694
7	0x3e2b7c21	0.1674657
8	0x3e9732fc	0.29531085
9	0xbf211c64	-0.62933946
10	0xbe009fcd	-0.12560959
11	0xbe04bbf1	-0.12962319
12	0x3e0aca30	0.13553691
13	0xbe9c5fff	-0.3054199
14	0xbed92e70	-0.42418242
15	0x3f01958a	0.50618804
16	0x3e1931b3	0.14960365
17	0xbe29e585	-0.16591461
18	0xbd655517	-0.05598935
19	0xbd7427f6	-0.059608422
20	0xbe130811	-0.14358546
21	0x3e70c5f8	0.23513019
22	0x3e59259f	0.21205758
23	0x3e871e59	0.2639034
24	0x3e49389f	0.19650505
25	0x3ef91d7b	0.48655304
26	0x3d042cc5	0.032269258
27	0xbda0a21c	-0.0784342
28	0xbed4242e	-0.41433853
29	0x3e8936b0	0.26799536
30	0x3e0f30c2	0.13983443
31	0xbe6b5d4c	-0.22984809
32	0x3e732c78	0.23747432
33	0x3e3e746d	0.185991
34	0xbe2a05cf	-0.16603778
35	0x3ea3d2bc	0.31996715
36	0x3e2eb1f4	0.17060071
37	0xbe1d3421	-0.15351917
38	0xbe37dfc1	-0.17956449
39	0x3f0b8ce8	0.5451188
40	0x3e105fba	0.14099017
41	0x3e5f75cb	0.21822278
42	0xbcd4716d	-0.025932992
43	0x3d81c039	0.06335492
44	0x3ea82ad9	0.3284519
45	0xbecc9130	-0.3995452
46	0x3d10fa82	0.035395153
47	0xbf0a1deb	-0.539519
48	0x3d365536	0.044514857
49	0x3ebbacbd	0.36655226
50	0x3ea2d38c	0.31802022
51	0xbeec24b3	-0.4612175
52	0x3c3e9ac9	0.011633583
53	0xbeb4143a	-0.35171682
54	0x3e8afdd1	0.27146772
55	0x3e2d66e7	0.16933785
56	0xbe59caed	-0.21268816
57	0xbe008f0a	-0.12554565
58	0xbe94bc8f	-0.2905011
59	0x3e94b91e	0.29047483
60	0xbcf32015	-0.029678384
61	0x3e059dde	0.13048503
62	0x3e8b58ea	0.27216274
63	0x3e2dda36	0.16977772
64	0xbccb74c9	-0.024835961
65	0xbec7b3b0	-0.39004278
66	0x3e09a9b9	0.1344365
67	0x3ee79c82	0.45236593
68	0x3eb08c8a	0.34482223
69	0xbf0d414e	-0.5517777
70	0xbe9c0d0e	-0.3047871
71	0xbe93f987	-0.28901312
72	0xbe00f1ec	-0.12592286
73	0x3dd055bc	0.101726025
74	0x3ea9e130	0.33179617
75	0x3d8b82b6	0.068120405
76	0x3ec06c92	0.37582833
77	0x3edd6fd0	0.4324937
78	0xbe5e8b9f	-0.21732949
79	0x3e7e823e	0.24854371
80	0x3ea317a8	0.31853986
81	0xbe9f5ac0	-0.31123924
82	0x3e7006dc	0.23440117
83	0x3e82fe6e	0.2558474
84	0xbc138454	-0.009003717
85	0x3ecb82d3	0.39748248
86	0x3e86b75f	0.26311776
87	0xbf21e53b	-0.632404
88	0x3c0bc7ab	0.008531491
89	0xbef01e9a	-0.46898347
90	0xbda574f0	-0.08078945
91	0x3eb49140	0.35267067
92	0x3eb56073	0.35425147
93	0xbeba18fc	-0.36347187
94	0x3eba3af3	0.363731
95	0xbe87affc	-0.26501453
96	0xbe0a6703	-0.13515858
97	0x3deeca81	0.11659718
98	0x3da6d91f	0.08146881
99	0x3ee0707e	0.43835825
100	0x3e5783d6	0.21046385
101	0x3ebcd136	0.36878365
102	0xbe32ffb9	-0.17480363
103	0x3eef0cc9	0.46689442
104	0x3dd80d17	0.10549372
105	0xbed60a12	-0.41804558
106	0xbd2c0a5e	-0.042002074
107	0xbdba9eeb	-0.091123424
108	0xbe431b19	-0.19053306
109	0xbe651ecd	-0.22375031
110	0xbe3bbdfa	-0.18334189
111	0x3eb1747f	0.34659192
112	0x3d252f71	0.040328447
113	0x3e794004	0.24340826
114	0xbd80614f	-0.0626856
115	0xbd59ae11	-0.05314452
116	0x3c9056e3	0.017619556
117	0x3eb119a8	0.34589887
118	0xbea5c837	-0.32379314
119	0x3e65f9ea	0.22458616
120	0x3e8c12bf	0.27358052
121	0xbe42de55	-0.19030125
122	0x3e9a8c86	0.30185336
123	0x3e5309e3	0.2060924
124	0x3e8d0dfc	0.27549732
125	0x3e15e7bb	0.1463918
126	0x3e8764cf	0.26444098
127	0xbe975459	-0.2955654
128	0xbed21535	-0.41031805
129	0xbd1d04a5	-0.038334507
130	0xbe541a9f	-0.2071328
131	0x3ed4794a	0.41498786
132	0x3e608138	0.21924293
133	0x3e07718b	0.13226907
134	0x3e5b88cb	0.21438901
135	0xbcd0ad8b	-0.025473377
136	0x3eb0cf52	0.34533173
137	0xbdcd54b5	-0.10025922
138	0xbe86dc91	-0.26340154
139	0x3eace041	0.33764842
140	0xbdb356c5	-0.08756784
141	0x3eb8296e	0.35969108
142	0x3cb64ba1	0.02225286
143	0xbe470cf9	-0.19438542
144	0xbe3a401b	-0.18188517
145	0x3de12989	0.1099425
146	0x3ec1ea07	0.3787386
147	0xbdb4c260	-0.088261366
148	0xbe65e4f0	-0.22450614
149	0xbe1a7fdd	-0.15087838
150	0xbd9815ee	-0.07426058
151	0x3d171045	0.03688075
152	0xbe712acb	-0.2355148
153	0xbe573249	-0.21015276
154	0x3e71941b	0.23591654
155	0xbed17946	-0.40912837
156	0x3e5ee30e	0.21766302
157	0xbce3ee25	-0.027823517
158	0xbd80ca32	-0.06288566
159	0x3edca4f6	0.43094605
160	0xbe24253b	-0.16029827
161	0x3eaf9119	0.34290388
162	0x3e156b12	0.14591625
163	0x3eebf312	0.46083885
164	0x3edb906f	0.42883632
165	0xbf068cc7	-0.5255856
166	0x3e3ea750	0.18618512
167	0xbe0e4078	-0.1389178
168	0x3e1a61a1	0.15076305
169	0x3ebb764f	0.366137
170	0x3e116f6e	0.14202663
171	0xbf0d8922	-0.55287373
172	0xbdd40380	-0.1035223
173	0xbf0e21a1	-0.55520064
174	0xbe1ea319	-0.15491904
175	0xbe83b4f6	-0.25724
176	0xbe8044e9	-0.25052574
177	0xbd1566c9	-0.036474977
178	0x3d8944cf	0.06702577
179	0x3e551aee	0.20811054
180	0xbe287702	-0.16451648
181	0x3d7aaf7b	0.061202507
182	0x3ddfb951	0.10924018
183	0x3dfb3c73	0.12267389
184	0xbe35fa49	-0.17771257
185	0xbdbeb960	-0.09312701
186	0xbdb64c26	-0.08901243
187	0xbf027a84	-0.50968194
188	0xbef83c07	-0.48483297
189	0x3f181569	0.5940767
190	0xbe141dc1	-0.14464475
191	0x3e123d5a	0.14281216
